…
    "execution": {
     "iopub.execute_input": "2025-04-23T13:58:19.232510Z",
     "iopub.status.busy": "2025-04-23T13:58:19.232201Z",
     "iopub.status.idle": "2025-04-23T13:58:19.659940Z",
     "shell.execute_reply": "2025-04-23T13:58:19.658993Z"
    },
    "papermill": {
     "duration": 0.46823,
     "end_time": "2025-04-23T13:58:19.661444",
     "exception": false,
     "start_time": "2025-04-23T13:58:19.193214",
     "status": "completed"
    },
    "tags": []
   },
   "outputs": [
    {
     "data": {
      "text/plain": [
       "UNet(\n",
       "  (en1): Block(\n",
       "    (conv1): Conv2d(3, 64, kernel_size=(3, 3), stride=(1, 1), padding=(1, 1))\n",
       "    (conv2): Conv2d(64, 64, kernel_size=(3, 3), stride=(1, 1), padding=(1, 1))\n",
       "    (relu): ReLU()\n",
       "    (bn): BatchNorm2d(64, eps=1e-05, momentum=0.1, affine=True, track_running_stats=True)\n",
       "    (pool): MaxPool2d(kernel_size=2, stride=2, padding=0, dilation=1, ceil_mode=False)\n",
       "  )\n",
       "  (en2): Block(\n",
       "    (conv1): Conv2d(64, 128, kernel_size=(3, 3), stride=(1, 1), padding=(1, 1))\n",
       "    (conv2): Conv2d(128, 128, kernel_size=(3, 3), stride=(1, 1), padding=(1, 1))\n",
       "    (relu): ReLU()\n",
       "    (bn): BatchNorm2d(128, eps=1e-05, momentum=0.1, affine=True, track_running_stats=True)\n",
       "    (pool): MaxPool2d(kernel_size=2, stride=2, padding=0, dilation=1, ceil_mode=False)\n",
       "  )\n",
       "  (en3): Block(\n",
       "    (conv1): Conv2d(128, 256, kernel_size=(3, 3), stride=(1, 1), padding=(1, 1))\n",
       "    (conv2): Conv2d(256, 256, kernel_size=(3, 3), stride=(1, 1), padding=(1, 1))\n",
       "    (relu): ReLU()\n",
       "    (bn): BatchNorm2d(256, eps=1e-05, momentum=0.1, affine=True, track_running_stats=True)\n",
       "    (pool): MaxPool2d(kernel_size=2, stride=2, padding=0, dilation=1, ceil_mode=False)\n",
       "  )\n",
       "  (en4): Block(\n",
       "    (conv1): Conv2d(256, 512, kernel_size=(3, 3), stride=(1, 1), padding=(1, 1))\n",
       "    (conv2): Conv2d(512, 512, kernel_size=(3, 3), stride=(1, 1), padding=(1, 1))\n",
       "    (relu): ReLU()\n",
       "    (bn): BatchNorm2d(512, eps=1e-05, momentum=0.1, affine=True, track_running_stats=True)\n",
       "    (pool): MaxPool2d(kernel_size=2, stride=2, padding=0, dilation=1, ceil_mode=False)\n",
       "  )\n",
       "  (en5): Block(\n",
       "    (conv1): Conv2d(512, 1024, kernel_size=(3, 3), stride=(1, 1), padding=(1, 1))\n",
       "    (conv2): Conv2d(1024, 512, kernel_size=(3, 3), stride=(1, 1), padding=(1, 1))\n",
       "    (relu): ReLU()\n",
       "    (bn): BatchNorm2d(512, eps=1e-05, momentum=0.1, affine=True, track_running_stats=True)\n",
       "    (pool): MaxPool2d(kernel_size=2, stride=2, padding=0, dilation=1, ceil_mode=False)\n",
       "  )\n",
       "  (upsample4): ConvTranspose2d(512, 512, kernel_size=(2, 2), stride=(2, 2))\n",
       "  (de4): Block(\n",
       "    (conv1): Conv2d(1024, 512, kernel_size=(3, 3), stride=(1, 1), padding=(1, 1))\n",
       "    (conv2): Conv2d(512, 256, kernel_size=(3, 3), stride=(1, 1), padding=(1, 1))\n",
       "    (relu): ReLU()\n",
       "    (bn): BatchNorm2d(256, eps=1e-05, momentum=0.1, affine=True, track_running_stats=True)\n",
       "    (pool): MaxPool2d(kernel_size=2, stride=2, padding=0, dilation=1, ceil_mode=False)\n",
       "  )\n",
       "  (upsample3): ConvTranspose2d(256, 256, kernel_size=(2, 2), stride=(2, 2))\n",
       "  (de3): Block(\n",
       "    (conv1): Conv2d(512, 256, kernel_size=(3, 3), stride=(1, 1), padding=(1, 1))\n",
       "    (conv2): Conv2d(256, 128, kernel_size=(3, 3), stride=(1, 1), padding=(1, 1))\n",
       "    (relu): ReLU()\n",
       "    (bn): BatchNorm2d(128, eps=1e-05, momentum=0.1, affine=True, track_running_stats=True)\n",
       "    (pool): MaxPool2d(kernel_size=2, stride=2, padding=0, dilation=1, ceil_mode=False)\n",
       "  )\n",
       "  (upsample2): ConvTranspose2d(128, 128, kernel_size=(2, 2), stride=(2, 2))\n",
       "  (de2): Block(\n",
       "    (conv1): Conv2d(256, 128, kernel_size=(3, 3), stride=(1, 1), padding=(1, 1))\n",
       "    (conv2): Conv2d(128, 64, kernel_size=(3, 3), stride=(1, 1), padding=(1, 1))\n",
       "    (relu): ReLU()\n",
       "    (bn): BatchNorm2d(64, eps=1e-05, momentum=0.1, affine=True, track_running_stats=True)\n",
       "    (pool): MaxPool2d(kernel_size=2, stride=2, padding=0, dilation=1, ceil_mode=False)\n",
       "  )\n",
       "  (upsample1): ConvTranspose2d(64, 64, kernel_size=(2, 2), stride=(2, 2))\n",
       "  (de1): Block(\n",
       "    (conv1): Conv2d(128, 64, kernel_size=(3, 3), stride=(1, 1), padding=(1, 1))\n",
       "    (conv2): Conv2d(64, 64, kernel_size=(3, 3), stride=(1, 1), padding=(1, 1))\n",
       "    (relu): ReLU()\n",
       "    (bn): BatchNorm2d(64, eps=1e-05, momentum=0.1, affine=True, track_running_stats=True)\n",
       "    (pool): MaxPool2d(kernel_size=2, stride=2, padding=0, dilation=1, ceil_mode=False)\n",
       "  )\n",
       "  (conv_last): Conv2d(64, 1, kernel_size=(1, 1), stride=(1, 1))\n",
       ")"
      ]
     },
     "execution_count": 41,
     "metadata": {},
     "output_type": "execute_result"
    }
   ],
   "source": [
    "model = UNet().to(device)\n",
    "model"
   ]
  },
  {
   "cell_type": "markdown",
   "id": "2951ded4",
   "metadata": {
    "papermill": {
     "duration": 0.038799,
     "end_time": "2025-04-23T13:58:19.739377",
…
